Backend-Python(flask)/Model/MINST.pth (torch_old, 438587 bytes, 6 tensors)

0.weight f4 [128, 784]
-0.027610013 -0.008173985 -0.012248885 -0.034627147 0.010731276 0.028630344 0.011928758 -0.0125075355
-0.0035049894 0.003908911 -0.011008102 0.028685542 -4.3359407e-05 0.029854251 0.021808075 0.014745727
-0.018582942 -0.010970982 0.026478125 0.0062717227 0.019177752 -0.035542816 0.02333157 0.019300153
-0.029626692 0.02357916 -0.0016111047 -0.02630225 0.0056579234 0.0076865647 -0.03154657 -0.032613955
-0.034053594 -0.026935698 0.018181985 -0.011550535 0.019993566 0.027593134 0.019622391 -0.028762827
-0.011848767 0.015578207 -0.0012650122 0.019786216 0.0057212464 0.020410787 -0.017120149 0.022273073
0.022724196 0.013816003 -0.03797744 -0.033516668 0.025974894 -0.0021629345 0.02632461 0.02517038
0.021424642 -0.0057098037 -0.03427165 -0.009522228 0.011592584 0.012467349 0.01216407 0.015614968
-0.03384327 -0.01894932 0.02464623 0.012086369 -0.03867612 -0.021676544 0.00028036302 0.016228506
-0.01262955 -0.038106028 0.015974645 -0.027427038 0.011823832 -0.0015054425 -0.011112332 -0.026852943
-0.010930517 -0.016831048 -0.012222039 -0.026820762 0.004290591 0.012552217 -0.025099488 0.030833082
0.01941424 -0.004880431 0.023517165 -0.039638665 -0.041580796 -0.025792079 0.004521621 0.0037895867
0.0064067044 -0.017724073 -0.00854331 -0.027677085 -0.017579833 -0.04381112 0.007250408 0.03055227
-0.026550522 -0.009957135 -0.031933144 0.02434419 0.029481623 -0.024144722 -0.012443052 0.01648148
0.0004042389 -0.012595424 -0.017341146 -0.00028541425 -0.022403495 -0.03822166 0.017305274 -0.0047467574
0.0156058585 0.013897206 -0.027364051 -0.041020032 -0.04029225 -0.035615865 -0.05455485 -0.013674961
-0.02552682 0.019006036 -0.011077902 -0.009773992 -0.027426643 0.01777011 -0.018939191 -0.038084585
-0.038818233 0.011848694 -0.030381296 -0.036972158 0.025564918 0.02374749 0.007008897 0.005711273
-0.03978486 0.015674906 0.012853651 -0.039753247 -0.038966764 -0.043716267 -0.0014886591 -0.010713815
-0.06961045 -0.011608083 -0.065845564 -0.031593733 -0.024208572 0.0059659863 -0.022102024 -0.03282725
0.0063101808 -0.028979935 0.016521396 0.020599792 -0.017912047 -0.024124477 -0.028583966 -0.032011226
0.026578052 -0.032940827 -0.010839385 0.02677356 0.026768032 0.012126667 -0.024721134 0.015741164
0.010771901 0.008669183 -0.05196049 -0.047224205 -0.06199145 -0.031377044 -0.061775304 -0.041701052
-0.0037186155 -0.038957965 0.0011981567 -0.019388353 -0.0036073294 -0.033099174 0.017407548 -0.029105278
-0.023037346 0.017454376 -0.028035225 -0.032485045 -0.03622263 -0.0023591546 0.00087572006 0.012706002
-0.043878537 0.0012270907 -0.04781285 0.014772193 0.017435944 -0.04282387 0.011830277 -0.0029561247
-0.012648482 0.002012526 0.022714393 -0.015258642 -0.00055920245 -0.02942143 -0.030365558 -0.022050483
0.005998975 -0.039836302 -0.018684432 -0.048368804 0.0066318847 -0.014607385 0.0009632085 -0.018755527
-0.013839241 0.020785304 0.013340424 -0.018822815 -0.008031338 -0.022788225 0.027378835 0.016348075
-0.013061602 -0.027690496 -0.013573426 0.04525574 0.00038810374 0.02643224 0.0031659065 0.023726735
-0.021398503 0.020207137 0.032269157 -0.02602701 -0.0056089424 0.014361975 0.0034352245 0.012664194
-0.028275104 -0.014115867 -0.013486128 0.01708775 -0.032506436 0.016053049 -0.022532921 0.0031220815
00000000: 652e e2bc 2eec 05bc 8caf 48bc 32d5 0dbd
00000010: 3cd2 2f3c 2f8a ea3c d670 433c 68ec 4cbc
00000020: f7b3 65bb 5216 803b 545b 34bc f1fd ea3c
00000030: cfdc 35b8 e790 f43c d9a6 b23c 1098 713c
00000040: 413b 98bc a2bf 33bc a7e8 d83c 0683 cd3b
00000050: a91a 9d3c 5895 11bd d921 bf3c 5b1b 9e3c
00000060: adb3 f2bc 1529 c13c b42b d3ba d177 d7bc
00000070: 1a66 b93b 94df fb3b fa36 01bd 3696 05bd
00000080: c87b 0bbd 41a8 dcbc 63f2 943c 753e 3dbc
00000090: 8cc9 a33c ff0a e23c 23bf a03c 05a0 ebbc
000000a0: 5521 42bc bc3b 7f3c c4ce a5ba b416 a23c
000000b0: 4b79 bb3b 8634 a73c 8e3f 8cbc 0576 b63c
000000c0: 1828 ba3c 845c 623c 3b8e 1bbd c648 09bd
000000d0: 4dc9 d43c 05c0 0dbb b5a6 d73c 1d32 ce3c
000000e0: bb82 af3c 4e19 bbbb 6e60 0cbd 1e03 1cbc
000000f0: d2ee 3d3c da43 4c3c cf4b 473c ecd5 7f3c
00000100: 3e9f 0abd 9b3b 9bbc e4e6 c93c e805 463c
00000110: da6a 1ebd 0293 b1bc b0fd 9239 a5f1 843c
00000120: 2cec 4ebc 1115 1cbd 42dd 823c abae e0bc
00000130: bfb8 413c 4552 c5ba 8010 36bc b4fa dbbc
00000140: e915 33bc 44e1 89bc f23e 48bc 37b7 dbbc
00000150: 1698 8c3b d0a7 4d3c 719d cdbc a995 fc3c
00000160: 9d0a 9f3c 06ec 9fbb 12a7 c03c 275c 22bd
00000170: a050 2abd e949 d3bc 1b2a 943b b75a 783b
00000180: 55ef d13b 1332 91bc 3df9 0bbc 0ebb e2bc
00000190: 9503 90bc 4a73 33bd d594 ed3b c148 fa3c
000001a0: 7b80 d9bc 4023 23bc 54cc 02bd 776d c73c
000001b0: 7283 f13c 27cb c5bc f1dd 4bbc 2b04 873c
000001c0: 07f0 d339 0a5d 4ebc 050f 8ebc a7a3 95b9
000001d0: 8987 b7bc 518e 1cbd cac3 8d3c b08a 9bbb
000001e0: b7af 7f3c 1bb1 633c 932a e0bc 9f04 28bd
000001f0: 7d09 25bd f1e1 11bd e874 5fbd f20c 60bc
00000200: 9f1d d1bc 8cb2 9b3c 1780 35bc 1823 20bc
00000210: d7ad e0bc 9f92 913c 5d26 9bbc 95fe 1bbd
00000220: deff 1ebd 0621 423c 32e2 f8bc 1e70 17bd
00000230: 856d d13c 198a c23c e4aa e53b a125 bb3b
00000240: 73f5 22bd a968 803c 1f98 523c 4dd4 22bd
00000250: 9d9b 1fbd d40f 33bd 1c1f c3ba ff88 2fbc
00000260: ec8f 8ebd d42f 3ebc 0ada 86bd 6e68 01bd
00000270: 0e51 c6bc 527e c33b 4e0f b5bc de75 06bd
00000280: a2c5 ce3b 5467 edbc e157 873c e5c0 a83c
00000290: 49bc 92bc b2a0 c5bc ec28 eabc 341e 03bd
000002a0: 37ba d93c f6ec 06bd ad97 31bc 3a54 db3c
000002b0: a248 db3c eeae 463c fa83 cabc 9df3 803c
000002c0: a17c 303c 3009 0e3c 86d4 54bd 2b6e 41bd
000002d0: bfea 7dbd 3785 00bd 1a08 7dbd b9ce 2abd
000002e0: 04b4 73bb 6392 1fbd 780b 9d3a 53d4 9ebc
000002f0: f268 6cbb 0093 07bd 469a 8e3c 316e eebc
00000300: d1b8 bcbc 7bfc 8e3c 21aa e5bc 0a0f 05bd
00000310: 2e5e 14bd 0c9c 1abb 9490 653a d62c 503c
00000320: fbb9 33bd 55d6 a03a 68d7 43bd 1107 723c
00000330: d3d5 8e3c 1568 2fbd c7d3 413c 8bbb 41bb
00000340: 943b 4fbc 95e4 033b 8913 ba3c 62ff 79bc
00000350: 7197 12ba 3605 f1bc 31c1 f8bc 37a3 b4bc
00000360: 0d93 c43b 642b 23bd 1810 99bc 5e1e 46bd
00000370: 4850 d93b d053 6fbc d47f 7c3a 31a5 99bc
00000380: fcbd 62bc f145 aa3c cb91 5a3c 4e32 9abc
00000390: e095 03bc 5fae babc 9449 e03c 66ec 853c
000003a0: 5400 56bc 2ed7 e2bc 1363 5ebc 155e 393d
000003b0: 677a cb39 6d88 d83c 197b 4f3b 925e c23c
000003c0: ea4b afbc 7089 a53c aa2c 043d 9936 d5bc
000003d0: 38cb b7bb 7d4e 6b3c 8121 613b 7b7d 4f3c
000003e0: 31a1 e7bc 3d46 67bc ecf4 5cbc 9cfb 8b3c
000003f0: 7825 05bd af81 833c f696 b8bc d69b 4c3b

0.bias f4 [128]
-0.030193029 -0.0005639353 0.018322362 0.0034653414 0.011534002 0.014157675 -0.02649952 0.0022274004
0.00814492 0.010197395 0.031810656 -0.03301803 -0.02681655 -0.0067797597 -0.028874202 0.023771137
0.021204751 0.013723104 -0.009388334 -0.021306377 -0.010384267 -0.018475905 -0.021860413 0.0030058697
0.029831206 0.018747961 0.0032341378 0.0012908368 -0.02809146 0.026215987 -0.006815172 -0.032621905
0.03150243 0.017582381 -0.020107614 -0.017929228 0.038931027 -0.0025732552 0.035041917 0.017118184
0.017063562 0.029082686 -0.013015291 0.010524861 0.032766026 -0.008380446 0.025356637 -0.014679725
-0.012498656 0.0026311667 0.028981632 0.022434346 -0.023376716 0.03254941 0.006519396 -0.003834418
0.0049870643 -0.0088053495 0.011055295 -0.0129921185 0.0238361 -0.0039224913 0.005913181 0.013944812
-0.016288761 0.032217722 0.023867553 -0.008364794 0.028377488 -0.021164646 0.025173184 -0.0027885768
-0.016943704 0.0068865293 0.004958954 0.023849977 0.030275032 0.034953672 -0.0005591779 0.0006592163
0.011433611 -0.02029676 0.03576899 -0.024139922 -0.022603272 0.034057103 0.015227016 0.017287813
0.017938135 -0.03557662 -0.033848077 0.011370637 0.031061143 -0.011202259 0.005855899 -0.02392762
-0.021948082 -0.015252949 -0.03311169 -0.0076446515 -0.026990427 -0.016589377 -0.0070220623 0.014216694
0.033917435 -0.027583972 0.02494024 -0.004982718 0.03454208 -0.00011417554 -0.00068475876 0.03421998
-0.007316503 0.0020868792 0.0057117175 0.031118317 0.0077371793 -0.00332992 -0.0044032745 0.0031687967
0.014830674 0.024487307 0.027167467 0.007091014 -0.01099653 0.0023977952 -0.010753311 0.039037023
00000000: 5f57 f7bc 0fd5 13ba c718 963c c81a 633b
00000010: 1cf9 3c3c 98f5 673c 8515 d9bc 94f9 113b
00000020: 4572 053c fa12 273c e44b 023d ea3d 07bd
00000030: 62ae dbbc bf28 debb 9789 ecbc b0bb c23c
00000040: 96b5 ad3c dfd6 603c 87d1 19bc b68a aebc
00000050: c622 2abc c85a 97bc 9c14 b3bc 20fe 443b
00000060: 9360 f43c 5395 993c d4f3 533b 4c31 a93a
00000070: 1020 e6bc e9c2 d63c ce51 dfbb 8c9e 05bd
00000080: b108 013d ed08 903c b9b8 a4bc 51e0 92bc
00000090: 2476 1f3d 0fa4 28bb 1d88 0f3d 6f3b 8c3c
000000a0: e2c8 8b3c d03e ee3c 163e 55bc 7770 2c3c
000000b0: ab35 063d 234e 09bc b9b8 cf3c 3b83 70bc
000000c0: 2ac7 4cbc a76f 2c3b e36a ed3c 3cc8 b73c
000000d0: 8780 bfbc 8852 053d a8a0 d53b dc4a 7bbb
000000e0: 876a a33b 5044 10bc 4521 353c e5dc 54bc
000000f0: ed43 c33c 3e88 80bb 5cc3 c13b c878 643c
00000100: 0270 85bc bbf6 033d e385 c33c 7d0c 09bc
00000110: e877 e83c 7b61 adbc fe37 ce3c 8ec0 36bb
00000120: 86cd 8abc 65a8 e13b b97e a23b 0761 c33c
00000130: 5803 f83c 952b 0f3d cb95 12ba 42cf 2c3a
00000140: 0a54 3b3c 6445 a6bc 8182 123d 16c1 c5bc
00000150: 7f2a b9bc 767f 0b3d bc7a 793c 2c9f 8d3c
00000160: fff2 923c cab8 11bd 48a4 0abd e94b 3a3c
00000170: f073 fe3c ae89 37bc d7e2 bf3b db03 c4bc
00000180: 77cc b3bc 81e7 79bc 20a0 07bd fc7f fabb
00000190: 071b ddbc 72e6 87bc 5419 e6bb 23ed 683c
000001a0: 02ed 0a3d c8f7 e1bc 794f cc3c 1146 a3bb
000001b0: ff7b 0d3d 8771 efb8 6281 33ba 402a 0c3d
000001c0: 47bf efbb 06c4 083b 5c29 bb3b d7eb fe3c
000001d0: 2a88 fd3b c93a 5abb 5849 90bb 96ab 4f3b
000001e0: 5bfc 723c 9b99 c83c 4f8e de3c bd5b e83b
000001f0: ca2a 34bc 5424 1d3b a82e 30bc 49e5 1f3d

2.weight f4 [64, 128]
-0.067260966 -0.02751774 -0.07789467 -0.077453256 -0.07216377 -0.042820964 0.006973293 0.05067863
0.08177367 -0.014009614 -0.026484335 0.06480649 0.020502642 0.08027463 -0.060342778 0.06283741
-0.033794142 0.07912817 0.043356363 -0.046485286 0.020537462 0.03609711 0.022478161 -0.08578641
-0.081717715 -0.050189663 0.081794344 0.0350559 -0.032650966 0.006989266 -0.06530408 0.04420281
-0.027184786 0.018816445 0.061680958 -0.053701393 -0.044527687 -0.059659477 0.026775278 -0.0878048
-0.04530701 0.08393429 -0.0107899085 0.04004343 0.0039362167 -0.073724926 -0.06641249 0.002665075
0.009546022 -0.063295804 0.06494033 -0.047704272 -0.042425234 -0.08127876 -0.058828354 -0.0804877
-0.04159661 0.07681619 -0.012231493 -0.0118118 -0.013099485 0.07969711 0.06890435 -0.051857173
-0.06159434 -0.035167176 -0.072503544 0.047013536 -0.022342425 0.015401318 -0.00044394544 -0.07029329
0.044524584 0.069274426 -0.08357553 -0.056580666 0.040342744 0.046785988 -0.024710244 0.03363889
-0.05944893 -0.041206274 -0.0507191 -0.050836846 0.0643534 -0.040584836 0.08223418 0.060547557
-0.07804048 0.0006795749 0.07288159 -0.03172959 -0.042046916 0.019982731 0.035482246 -0.05348004
-0.00174644 -0.05521487 0.08721474 0.019833699 -0.028906094 -0.056481916 -0.06810845 0.07347057
0.0074193142 0.085377894 -0.0080367355 0.04752913 0.03308379 -0.023935659 -0.055746198 0.07163228
-0.08118672 -0.019968065 0.07226708 0.016517816 -0.04347861 0.075552925 0.04249793 0.074000865
0.06385263 -0.050844166 -0.05033723 -0.032224905 -0.034844812 -0.058391217 -0.0695499 -0.07895266
-0.014070032 -0.037906647 0.15160345 0.027471557 0.03792764 0.097592264 0.0038017354 0.0027090427
-0.04156898 -0.02715708 0.024792401 -0.018750813 0.017185397 -0.010001125 -0.08645704 -0.12638775
0.020565456 -0.020343145 -0.027097112 0.0172033 -0.039127596 0.077590846 -0.003656709 -0.084722996
0.07034178 -0.11253329 -0.061802678 -0.06168383 -0.04408017 0.002922229 -0.08470246 0.02137493
-0.082032986 0.023494218 -0.0073505314 0.0373346 -0.0573754 -0.036822822 0.064753346 -0.020759346
-0.014830467 0.08352614 -0.08402467 -0.025319293 0.0032277675 0.0416498 0.07277559 -0.08638504
0.0653402 -0.05844506 0.06289006 0.06259672 -0.00014194692 0.05482061 0.034217328 -0.06868769
-0.06366798 -0.010456444 0.057077225 -0.016756069 -0.07279711 -0.05836762 -0.030672204 -0.053767394
-0.041646242 0.050972935 -0.048640598 0.0244218 0.19162749 0.081558004 0.08638244 0.080431335
-0.051691167 0.123557545 0.03926766 -0.06787902 -0.06267158 -0.12183153 0.0145616 0.028436478
0.07862555 -0.08531078 0.0328409 -0.030091854 -0.00042113336 0.06501825 -0.037361506 0.08924172
0.015770074 0.0836808 -0.03724062 0.034510322 0.02625929 0.11356971 0.049062535 0.027621364
-0.060981248 0.011895936 0.057517726 0.074711785 -0.081981845 0.0022857243 -0.008890105 0.047982004
-0.049667824 0.15197034 0.047633078 -0.065020904 0.02193613 0.07513925 0.008022366 0.030510869
0.1109726 0.032337766 0.07642477 0.09757057 -0.02966176 -0.0846442 0.08717238 0.005259177
-0.083529554 0.021973763 0.07875185 0.09168366 -0.017599145 -0.045816503 -0.021881757 -0.0651524
00000000: 1ec0 89bd e26c e1bc 3e87 9fbd d09f 9ebd
00000010: 99ca 93bd 0965 2fbd 3980 e43b 6594 4f3d
00000020: f478 a73d 9488 65bc adf5 d8bc 44b9 843d
00000030: 28f5 a73c 0667 a43d fd29 77bd e6b0 803d
00000040: ba6b 0abd f30d a23d 7196 313d 5b67 3ebd
00000050: 2e3e a83c 90da 133d 1f24 b83c c9b0 afbd
00000060: 9e5b a7bd ad93 4dbd cb83 a73d c796 0f3d
00000070: 05bd 05bd 3606 e53b 25be 85bd 010e 353d
00000080: a1b2 debc f224 9a3c 2ca5 7c3d fef5 5bbd
00000090: aa62 36bd 7f5d 74bd d457 db3c 01d3 b3bd
000000a0: d893 39bd bee5 ab3d 28c8 30bc 9404 243d
000000b0: 61fb 803b 18fd 96bd 4603 88bd 8aa8 2e3b
000000c0: eb66 1c3c 3ba1 81bd 70ff 843d 8e65 43bd
000000d0: 15c6 2dbd 7b75 a6bd 00f6 70bd bcd6 a4bd
000000e0: 3561 2abd ce51 9d3d 9a66 48bc 4886 41bc
000000f0: 399f 56bc 3d38 a33d b91d 8d3d 3068 54bd
00000100: 594a 7cbd 750b 10bd bd7c 94bd 4491 403d
00000110: 7607 b7bc cf55 7c3c 59c1 e8b9 eef5 8fbd
00000120: 695f 363d c0df 8d3d a629 abbd 21c1 67bd
00000130: 6f3e 253d aaa2 3f3d 236d cabc efc8 093d
00000140: b980 73bd e9c7 28bd d5be 4fbd 4c3a 50bd
00000150: b7cb 833d 493c 26bd 656a a83d b700 783d
00000160: b0d3 9fbd 8025 323a f142 953d e3f6 01bd
00000170: 6339 2cbd d3b2 a33c d555 113d e30d 5bbd
00000180: cde8 e4ba fd28 62bd a49d b23d 487a a23c
00000190: 79cc ecbc 9559 67bd 717c 8bbd bd77 963d
000001a0: b81d f33b 9bda ae3d 83ac 03bc e8ad 423d
000001b0: de82 073d b714 c4bc 2056 64bd f2b3 923d
000001c0: 3945 a6bd 1194 a3bc c300 943d 5f50 873c
000001d0: a116 32bd 7ebb 9a3d 4f12 2e3d c48d 973d
000001e0: 2bc5 823d f941 50bd 692e 4ebd 43fe 03bd
000001f0: 6fb9 0ebd a12b 6fbd 2e70 8ebd efb1 a1bd
00000200: fe85 66bc 0044 1bbd ef3d 1b3e 080c e13c
00000210: 035a 1b3d 74de c73d 8926 793b 328a 313b
00000220: 3c44 2abd 8678 debc 6f19 cb3c 4e9b 99bc
00000230: 64c8 8c3c c2db 23bc 6310 b1bd ca6b 01be
00000240: e378 a83c aba6 a6bc c3fa ddbc efed 8c3c
00000250: 4244 20bd f3e7 9e3d 66a5 6fbb 4083 adbd
00000260: 5a0f 903d db77 e6bd ce24 7dbd 2fa8 7cbd
00000270: 698d 34bd de82 3f3b 7c78 adbd 7a1a af3c
00000280: e900 a8bd f276 c03c badc f0bb 2aec 183d
00000290: 7802 6bbd 87d3 16bd 679d 843d 810f aabc
000002a0: 7dfb 72bc c10f ab3d 2015 acbd 686a cfbc
000002b0: f488 533b fb98 2a3d 5e0b 953d a4ea b0bd
000002c0: 15d1 853d 1664 6fbd 81cc 803d b632 803d
000002d0: 96d7 14b9 938b 603d 7827 0c3d 22ac 8cbd
000002e0: 5c64 82bd 8151 2bbc cfc9 693d 0644 89bc
000002f0: a716 95bd e312 6fbd 4644 fbbc 333b 5cbd
00000300: 4095 2abd ffc8 503d 5d3b 47bd 3a10 c83c
00000310: ff39 443e e207 a73d 47e9 b03d 2fb9 a43d
00000320: 1eba 53bd bd0b fd3d 20d7 203d 2804 8bbd
00000330: f559 80bd cf82 f9bd c793 6e3c 9ef3 e83c
00000340: 6f06 a13d 6bb7 aebd 2e84 063d 3183 f6bc
00000350: 90cb dcb9 4a28 853d 6108 19bd 5dc4 b63d
00000360: 3e30 813c d760 ab3d 9f89 18bd b25a 0d3d
00000370: b91d d73c 3c97 e83d ccf5 483d 3346 e23c
00000380: 79c7 79bd 2ce7 423c b597 6b3d 7e02 993d
00000390: 19e6 a7bd 17cc 153b cea7 11bc c788 443d
000003a0: 7d70 4bbd 1d9e 1b3e e71a 433d ae29 85bd
000003b0: 66b3 b33c 9be2 993d 3e70 033c eef1 f93c
000003c0: 9a45 e33d 9b74 043d 9784 9c3d 14d3 c73d
000003d0: 38fd f2bc f059 adbd 6f87 b23d 2d55 ac3b
000003e0: 8b11 abbd 5202 b43c a648 a13d a5c4 bb3d
000003f0: 152c 90bc 16aa 3bbd 5f41 b3bc 9f6e 85bd

2.bias f4 [64]
-0.08622397 -0.035221953 -0.049925007 0.06152165 -0.064305775 0.006479409 0.039084826 0.03038876
0.034114722 0.082023114 0.06138209 -0.032892488 -0.06328574 -0.06432979 -0.020564673 0.013570446
0.07111311 -0.079702236 0.046934295 0.024299752 0.040846493 0.08045382 -0.0724236 -0.05404117
-0.06873246 -0.00575747 0.019939447 0.005604534 0.06824825 0.014619509 0.08262996 -0.0377048
-0.049018893 0.027014667 0.09301758 0.01596061 -0.03208991 0.040531877 0.031197835 -0.03443636
0.052234374 0.10415277 0.038431395 -0.025855994 -0.018233575 0.060577042 -0.06939737 0.036821216
0.047389284 -0.030215494 -0.049440935 0.0025659257 -0.06667217 0.040271983 -0.0035048644 0.04963643
-0.015033775 0.030591113 0.0071513983 -0.078302 0.010017218 0.021635454 0.10658198 -0.07459247
00000000: 3196 b0bd e544 10bd 2a7e 4cbd 20fe 7b3d
00000010: bfb2 83bd 3951 d43b 6917 203d d9f1 f83c
00000020: e1bb 0b3d bcfb a73d c96b 7b3d 46ba 06bd
00000030: f49b 81bd 56bf 83bd 3f77 a8bc 9356 5e3c
00000040: c0a3 913d ed3a a3bd 2d3e 403d 4610 c73c
00000050: a74e 273d f9c4 a43d d352 94bd 465a 5dbd
00000060: 9bc3 8cbd 29a9 bcbb 0d58 a33c 3da6 b73b
00000070: bdc5 8b3d aa86 6f3c e539 a93d 5970 1abd
00000080: 09c8 48bd dd4d dd3c 0080 be3d d3bf 823c
00000090: b670 03bd c104 263d 9a92 ff3c 240d 0dbd
000000a0: b6f3 553d 0c4e d53d 3d6a 1d3d f3cf d3bc
000000b0: 945e 95bc a21f 783d 3520 8ebd d8d1 163d
000000c0: 441b 423d 7c86 f7bc 9482 4abd 1729 283b
000000d0: 6b8b 88bd 3cf4 243d deb1 65bb 924f 4b3d
000000e0: 3950 76bc 379a fa3c 4756 ea3b cd5c a0bd
000000f0: 421f 243c d63c b13c a747 da3d f0c3 98bd

4.weight f4 [10, 64]
-0.107811294 -0.09118505 0.052632183 0.17077261 0.065976016 0.11368913 -0.19699769 0.094899066
0.010571793 -0.045265842 0.011690712 0.17928351 0.2744244 -0.0288743 0.07006183 -0.05203348
-0.051395886 -0.21688096 -0.07040464 0.29993838 0.08016491 0.136885 -0.10984477 0.016369669
-0.20701991 -0.04868901 -0.01240558 -0.09653171 -0.21484596 -0.025197966 0.1092721 0.09190972
0.062366057 -0.13592601 -0.33091515 0.033244926 0.14266393 -0.021600053 -0.15012726 -0.12875582
-0.06759557 0.01516122 -0.11422071 0.011869877 0.006829153 -0.09636437 0.07642217 -0.10654975
0.012274238 0.21511753 -0.13449271 -0.08589847 0.26945257 -0.083800524 0.20028715 -0.078428626
-0.14573574 0.0061019617 0.1533852 0.06739125 0.23568311 -0.17849791 0.2976042 -0.1221642
0.088846475 0.29968423 -0.24941544 0.10241236 0.017061353 -0.0944369 0.005178845 0.122712
0.16018976 -0.1376507 0.03949673 0.118210256 0.0027094858 0.110797405 0.04321412 0.19777206
-0.04659583 0.066033795 0.002138952 -0.10297647 -0.040241808 -0.17979874 -0.029231446 -0.14885621
-0.15177967 0.07618503 0.1283809 -0.13081224 0.070864804 -0.31944302 0.08882651 0.09566433
0.081767604 0.12833546 0.1179117 0.07914653 0.14932139 -0.1368441 -0.11931604 0.024609119
0.0075334553 0.062817514 -0.008964366 0.13462606 -0.22839284 0.20479846 0.057961047 -0.19052546
0.12429682 -0.066052206 -0.008180712 -0.087544814 -0.10295364 0.1156503 0.24315111 0.15246454
0.23573746 0.049162276 -0.18633074 0.004446692 -0.140598 0.0054777213 -0.38407665 -0.020610431
0.10952649 0.038177922 -0.11952111 -0.005468365 0.10864321 -0.038681492 0.25113377 -0.037118915
0.05781258 0.21170576 0.02261831 -0.08193699 0.015777465 -0.08924593 -0.0025550066 0.0088829575
0.25799605 -0.14263879 0.00769873 0.077624545 -0.038698185 0.077048376 -0.04554256 0.06499213
-0.18843356 -0.045186244 0.23577805 0.062137183 0.19831914 0.08277792 0.039405942 0.071506746
-0.11844248 -0.21839696 -0.21220787 -0.18829146 0.16050822 0.20139752 -0.15964061 -0.039444327
0.097135425 0.16855375 0.0018069862 -0.16568263 0.12358709 -0.18201089 -0.054760262 0.2498591
0.06260987 -0.09645124 0.09200947 0.16907638 -0.1004762 -0.11769564 -0.038560037 -0.024920836
-0.06816302 0.017365074 0.16964608 -0.11757915 0.17241217 0.003699555 -0.28786683 0.09534565
0.012108374 -0.18204229 -0.010098953 -0.07579941 -0.20365557 -0.09238733 0.21184728 -0.10001669
-0.16011252 0.14664076 0.050931327 0.0523557 -0.037720155 -0.089968406 0.13074872 0.13140215
0.16911969 -0.06964136 -0.041141618 -0.20623854 -0.09424741 -0.18376194 0.2089606 0.14524744
0.09233024 0.061516505 -0.1407654 -0.13090914 -0.19062582 -0.17786925 0.17818137 0.017816545
0.056505416 0.07729882 -0.09409667 0.041058227 0.002929328 -0.010133138 -0.041241046 -0.069848835
-0.104719415 0.21981905 0.06305721 0.06352815 -0.039048508 -0.043826632 0.003860712 0.3406261
-0.11659196 -0.2140081 0.1253466 -0.23511784 0.007855433 0.013052322 -0.12138281 0.17466988
0.03900552 -0.048429877 0.042066783 -0.0993784 0.032262634 0.1459358 0.16385797 0.049043078
00000000: 2bcc dcbd 3abf babd d894 573d 04df 2e3e
00000010: 6f1e 873d d9d5 e83d c3b9 49be 715a c23d
00000020: 5035 2d3c ad68 39bd 668a 3f3c 1996 373e
00000030: 5b81 8c3e cc89 ecbc 947c 8f3d 0f21 55bd
00000040: 7e84 52bd 0b16 5ebe 4f30 90bd 8691 993e
00000050: 802d a43d 952b 0c3e 4bf6 e0bd af19 863c
00000060: 07fd 53be 216e 47bd c640 4bbc 6bb2 c5bd
00000070: 9400 5cbe f76b cebc 0dca df3d 2a3b bc3d
00000080: 8d73 7f3d 3030 0bbe b66d a9be d52b 083d
00000090: 7e16 123e 98f2 b0bc f6ba 19be 91d8 03be
000000a0: 8c6f 8abd c466 783c 8cec e9bd df79 423c
000000b0: 16c7 df3b af5a c5bd 3a83 9c3d c136 dabd
000000c0: e319 493c c547 5c3e 75b8 09be 89eb afbd
000000d0: b0f5 893e 9c9f abbd 1318 4d3e 309f a0bd
000000e0: c03b 15be f7f2 c73b 0311 1d3e 6c04 8a3d
000000f0: ea56 713e 28c8 36be 945f 983e 3931 fabd
00000100: 24f5 b53d 3670 993e c366 7fbe 92bd d13d
00000110: 40c4 8b3c 2268 c1bd 4db3 a93b 6e50 fb3d
00000120: c908 243e 4ef4 0cbe 53c7 213d 3818 f23d
00000130: a191 313b c0e9 e23d 4a01 313d c284 4a3e
00000140: 45db 3ebd ba3c 873d a92d 0c3b 54e5 d2bd
00000150: 98d4 24bd 291d 38be c976 efbc c36d 18be
00000160: 216c 1bbe e606 9c3d 4876 033e a5f3 05be
00000170: 9121 913d 098e a3be acea b53d a9eb c33d
00000180: c675 a73d 5f6a 033e b07b f13d 9317 a23d
00000190: b5e7 183e dc20 0cbe f85b f4bd 1099 c93c
000001a0: 34db f63b 78a6 803d 47df 12bc 6adb 093e
000001b0: d0df 69be b0b6 513e 9068 6d3d 1b19 43be
000001c0: 558f fe3d 6146 87bd 6508 06bc b24a b3bd
000001d0: 5cd9 d2bd 11da ec3d 9bfc 783e aa1f 1c3e
000001e0: 2965 713e 625e 493d 7ccd 3ebe 8eb5 913b
000001f0: ecf8 0fbe 757e b33b b2a5 c4be 35d7 a8bc
00000200: 6d4f e03d 7460 1c3d 7cc7 f4bd f82f b3bb
00000210: 5580 de3d 7c70 1ebd 9b94 803e 010a 18bd
00000220: e2cc 6c3d 65c9 583e 094a b93c 95ce a7bd
00000230: be3f 813c 92c6 b6bd e671 27bb d389 113c
00000240: 0f18 843e e70f 12be a145 fc3b 9ef9 9e3d
00000250: fd81 1ebd 8acb 9d3d d68a 3abd 981a 853d
00000260: baf4 40be 3615 39bd cd6f 713e 8f83 7e3d
00000270: 2c14 4b3e 7887 a93d 2068 213d 2172 923d
00000280: f991 f2bd 74a3 5fbe 054d 59be 7acf 40be
00000290: 445c 243e 273b 4e3e d478 23be 6090 21bd
000002a0: f0ee c63d 5b99 2c3e 65d8 ec3a b5a8 29be
000002b0: 3a1b fd3d 1061 3abe 4c4c 60bd 10db 7f3e
000002c0: 9b39 803d 3a88 c5bd 766f bc3d 5c22 2d3e
000002d0: 77c6 cdbd 690a f1bd 21f1 1dbd c826 ccbc
000002e0: 0e99 8bbd 3341 8e3c b4b7 2d3e 56cd f0bd
000002f0: d18c 303e 3c74 723b 4863 93be 9544 c33d
00000300: 3462 463c 4b69 3abe 1476 25bc b93c 9bbd
00000310: 168b 50be 9235 bdbd 7eee 583e 8dd5 ccbd
00000320: 89f4 23be ff28 163e 5e9d 503d ee72 563d
00000330: 7380 1abd 5b41 b8bd fee2 053e 498e 063e
00000340: b62d 2d3e 21a0 8ebd 1d84 28bd 3230 53be
00000350: c904 c1bd 172c 3cbe c4f9 553e bfbb 143e
00000360: a317 bd3d bbf8 7b3d ce24 10be 0c0d 06be
00000370: 6a33 43be 5b23 36be 2d75 363e 01f4 913c
00000380: 3972 673d d84e 9e3d c1b5 c0bd ac2c 283d
00000390: f8f9 3f3b 7605 26bc 5fec 28bd e80c 8fbd
000003a0: 2277 d6bd 3f18 613e 2324 813d 0c1b 823d
000003b0: 54f1 1fbd 8e83 33bd 0004 7d3b 8b66 ae3e
000003c0: c4c7 eebd f024 5bbe dc5a 003e bbc2 70be
000003d0: 13b4 003c 68d9 553c 8d97 f8bd a9dc 323e
000003e0: 41c4 1f3d 685e 46bd 384e 2c3d e786 cbbd
000003f0: d325 043d 3270 153e 62ca 273e 65e1 483d

4.bias f4 [10]
-0.10553235 0.048123002 -0.06064423 0.0580088 0.027199037 0.0050240033 -0.061839502 -0.0264333
0.094733946 0.098674975
00000000: 5821 d8bd a01c 453d 1666 78bd a39a 6d3d
00000010: 84d0 de3c 65a0 a43b 6b4b 7dbd a68a d8bc
00000020: df03 c23d 1b16 ca3d
